ml/model.tflite (tflite, 920 bytes, 1 tensors)

model_8/dense_18/MatMul f4 [1, 23]
00000000: 9903 85c6 716a 1ac6 36f6 6547 7b0e 16c4
00000010: 09c0 2cc7 acef cf45 b20e c2c5 7072 d947
00000020: 3bfe 4cc5 3c00 3245 2306 f6c8 a7a9 1c49
00000030: 598b 0d4a e9de e849 5beb 084a 3575 dc49
00000040: d27f 8549 0c78 494a 79d9 e549 cf26 134a
00000050: da9b 044a 14b4 1445 8fca 93c3
-17025.799 -9882.61 58870.21 -600.22626 -44224.035 6653.959 -6209.837 111332.875
-3279.8894 2848.0146 -503857.1 641690.44 2.3190622e+06 1.9076771e+06 2.2432868e+06 1.8059906e+06
1.0936262e+06 3.300867e+06 1.8829271e+06 2.4109318e+06 2.1726625e+06 2379.255 -295.5825
